…
Batch files #2 was picked for training
Total training = 10670	 Total test = 4620
Tot # of samples = 15290, Tot # batches (files) = 278, Each batch divides to 25 sections, # epochs = 1
Samples per sub-batch ~ 2.2
#Bins = 128 	 Pad len = 70.0 	 
Making the generator
Generators were created

MODEL 5 adjustable params:
self: <cnn_classifier_3D.CAE object at 0x2ae635b26b70>

Model: "sequential_1"
_________________________________________________________________
Layer (type)                 Output Shape              Param #   
=================================================================
conv3d_1 (Conv3D)            (None, 128, 128, 128, 32) 2624      
_________________________________________________________________
activation_1 (Activation)    (None, 128, 128, 128, 32) 0         
_________________________________________________________________
max_pooling3d_1 (MaxPooling3 (None, 32, 32, 32, 32)    0         
_________________________________________________________________
conv3d_2 (Conv3D)            (None, 32, 32, 32, 32)    27680     
_________________________________________________________________
activation_2 (Activation)    (None, 32, 32, 32, 32)    0         
_________________________________________________________________
max_pooling3d_2 (MaxPooling3 (None, 8, 8, 8, 32)       0         
_________________________________________________________________
conv3d_3 (Conv3D)            (None, 8, 8, 8, 64)       55360     
_________________________________________________________________
activation_3 (Activation)    (None, 8, 8, 8, 64)       0         
_________________________________________________________________
encoded (MaxPooling3D)       (None, 4, 4, 4, 64)       0         
_________________________________________________________________
conv3d_4 (Conv3D)            (None, 4, 4, 4, 64)       110656    
_________________________________________________________________
activation_4 (Activation)    (None, 4, 4, 4, 64)       0         
_________________________________________________________________
up_sampling3d_1 (UpSampling3 (None, 8, 8, 8, 64)       0         
_________________________________________________________________
conv3d_5 (Conv3D)            (None, 8, 8, 8, 32)       55328     
_________________________________________________________________
activation_5 (Activation)    (None, 8, 8, 8, 32)       0         
_________________________________________________________________
up_sampling3d_2 (UpSampling3 (None, 32, 32, 32, 32)    0         
_________________________________________________________________
conv3d_6 (Conv3D)            (None, 32, 32, 32, 32)    27680     
_________________________________________________________________
activation_6 (Activation)    (None, 32, 32, 32, 32)    0         
_________________________________________________________________
up_sampling3d_3 (UpSampling3 (None, 128, 128, 128, 32) 0         
_________________________________________________________________
conv3d_7 (Conv3D)            (None, 128, 128, 128, 3)  2595      
_________________________________________________________________
activation_7 (Activation)    (None, 128, 128, 128, 3)  0         
=================================================================
Total params: 281,923
Trainable params: 281,923
Non-trainable params: 0
_________________________________________________________________
Right before fitting
Running on 4 CPUs.
Epoch 1/1

   1/4850 [..............................] - ETA: 59:05:39 - loss: 0.6898
batch: 0, time: 01:30:40, loss: 0.6898306012153625
Save point after passing 2.0% of batches
…
